ronin/PreTrained_Models/ronin_body_heading/ronin_body_heading/checkpoints/ronin_body_heading.pt (torch_old, 642079 bytes, 48 tensors)

network.lstm.weight_ih_l0 f4 [200, 6]
-0.35793644 0.13466313 0.016088154 0.0705836 -0.14932618 -0.13408698 -0.32611668 -0.0056593874
-0.16974254 -0.028728869 0.6296377 -0.06418619 0.024197148 0.12539232 0.093081646 -0.2075526
0.07734619 0.011882908 0.4828543 -0.46990663 0.20486125 0.30322888 -0.074232206 0.08562887
0.2923126 -0.12387594 0.113927744 0.05481379 0.05434823 -0.21349107 -0.18065679 -0.6495485
-0.16846345 0.13546501 -0.11094906 0.003717291 -0.031027028 0.3875651 -0.16973801 -0.4467286
-0.2154331 -0.18449391 0.06723966 -0.5465494 -0.22429116 0.0150874555 -0.19017659 0.11835701
-0.3170435 0.7554708 0.8980712 -0.025396356 0.16907428 0.33651403 0.349807 -0.4290837
-0.19555055 0.023059148 0.12301269 0.056607075 -0.43056586 -0.1935267 -0.30367485 -0.53005904
-0.27334982 0.25290415 -0.21530443 -0.13470326 -0.0225363 0.26805714 -0.18109092 -0.23827222
-0.029304639 0.003594009 0.20167252 0.015757432 0.11409284 -0.041403763 -0.43392548 -0.10062588
0.5160556 -0.15585771 0.23297612 0.5016125 -0.34542915 -0.31301588 0.060962114 -0.08278461
0.086441115 -0.16967498 0.46102417 0.88315254 0.74435395 -0.02047873 0.6149075 -0.12723164
0.6244957 -0.15224941 -0.032440398 -0.2883237 -0.008290806 -0.124689095 0.27884504 -0.36746752
-0.48086014 -0.11365628 0.12135769 0.04787737 -0.21978863 0.3756478 -0.38440737 -0.007719523
-0.5334171 0.010360154 -0.3781971 0.23018718 -0.18387909 0.13397802 0.012574575 0.45567802
-0.3222242 0.44083017 -0.1123351 0.17622991 -0.13987216 -0.010232461 0.09577156 0.3504975
-0.026436288 -0.026407968 -0.036061335 -0.22119048 0.16730894 0.2622816 -0.16411419 0.2503112
0.04716404 0.121850915 0.39101207 0.71132493 -0.08414704 -0.04265367 0.4266794 0.1580812
0.0932186 0.021769932 -0.20790285 -0.01160368 0.11388163 -0.24903104 0.40673402 -0.53933746
0.052075982 0.04743658 -0.029607866 0.022768358 0.19036976 0.3453046 -0.031546924 -0.059850384
-0.090801485 -0.18368126 0.167257 0.7875219 -0.19964215 -0.20703244 0.030584358 0.1462588
-0.6437856 0.03815957 -0.21303505 -0.19617753 0.11456866 0.1165178 -0.054678388 -0.13076445
0.23551622 -0.04401853 -0.033424467 0.0041288775 -0.08662572 0.6906726 -0.06502501 -0.13218375
0.14876693 -0.1730039 0.0020780808 -0.16232364 0.08053023 0.03349435 -0.1270895 -0.21291044
0.30140215 0.15548302 0.0029239994 0.10714949 -0.26593208 0.2152341 0.23322465 -0.035849415
-0.05787035 0.41814542 -0.13255279 0.08353854 0.14206731 -0.26450422 -0.025516013 0.0071144938
-0.08415094 0.032742072 0.31669343 0.10558062 0.19786176 -0.0038271763 0.24416664 -0.22204286
-0.3729626 0.22347549 -0.57620096 0.33850652 -0.5507996 -0.12451887 -0.47720438 0.27869198
-0.46724963 -0.14827883 -0.11259374 -0.11269583 -0.313116 0.17083585 -0.0038010373 -0.08838865
0.09584175 -0.070775785 0.3570306 0.026181307 0.10572507 -0.42520693 -0.4509913 -0.15082952
0.6164105 -0.18985532 0.24295664 -0.04538541 0.037834864 0.09775173 -0.071866125 0.0734309
0.23039645 -0.08746259 0.040319055 0.027071904 -0.052159782 0.28808653 -1.3336096 0.12702656
00000000: 7243 b7be 22e5 093e 4ecb 833c 228e 903d
00000010: f6e8 18be 194e 09be c4f8 a6be 6272 b9bb
00000020: fdd0 2dbe ce58 ebbc f02f 213f 0d74 83bd
00000030: 1939 c63c d866 003e 97a1 be3d ab88 54be
00000040: ae67 9e3d 87b0 423c ae38 f73e 9a97 f0be
00000050: 26c7 513e d140 9b3e 0e07 98bd 305e af3d
00000060: ffa9 953e abb2 fdbd f352 e93d 6d84 603d
00000070: 409c 5e3d 679d 5abe 18fe 38be cf48 26bf
00000080: af81 2cbe 57b7 0a3e 4339 e3bd cb9d 733b
00000090: 652c febc ef6e c63e cdcf 2dbe 9cb9 e4be
000000a0: 7f9a 5cbe f9eb 3cbe f2b4 893d a9ea 0bbf
000000b0: 95ac 65be 6031 773c a7bd 42be 2965 f23d
000000c0: 8753 a2be 8966 413f ffe7 653f 050c d0bc
000000d0: cf21 2d3e 914b ac3e e719 b33e dcb0 dbbe
000000e0: 673e 48be 8ae6 bc3c 14ee fb3d d2dc 673d
000000f0: 2173 dcbe dd2b 46be 457b 9bbe f3b1 07bf
00000100: 82f4 8bbe a77c 813e c478 5cbe a7ef 09be
00000110: 0c9e b8bc c93e 893e e66f 39be a2fd 73be
00000120: 4810 f0bc 7789 6b3b 3e83 4e3e bb15 813c
00000130: 82a9 e93d fe96 29bd 7b2b debe f114 cebd
00000140: 381c 043f 2a99 1fbe 4b91 6e3e ad69 003f
00000150: 17dc b0be 9e43 a0be 69b3 793d fa8a a9bd
00000160: 0a08 b13d 47bf 2dbe 5c0b ec3e 4916 623f
00000170: fb8d 3e3f 02c3 a7bc 946a 1d3f 0349 02be
00000180: f3de 1f3f 45e7 1bbe 39e0 04bd 2a9f 93be
00000190: 29d6 07bc ff5c ffbd c7c4 8e3e b424 bcbe
000001a0: 4d33 f6be a0c4 e8bd 618a f83d 101b 443d
000001b0: 4510 61be e954 c03e 0bd1 c4be 0df4 fcbb
000001c0: 068e 08bf a3bd 293c 0da3 c1be 30b6 6b3e
000001d0: cd4a 3cbe 8931 093e 9705 4e3c a14e e93e
000001e0: 92fa a4be 7eb4 e13e f20f e6bd 9d75 343e
000001f0: a63a 0fbe 0da6 27bc e123 c43d 6974 b33e
00000200: ea90 d8bc 8655 d8bc 0db5 13bd c27f 62be
00000210: 0953 2b3e c649 863e 8d0d 28be ca28 803e
00000220: 152f 413d f98c f93d bc32 c83e 6419 363f
00000230: 4955 acbd 9db5 2ebd b975 da3e 0ae0 213e
00000240: 65e9 be3d db56 b23c 7ce4 54be 5d1d 3ebc
00000250: c63a e93d fe01 7fbe 713f d03e 0512 0abf
00000260: a04d 553d dc4c 423d 328c f2bc b584 ba3c
00000270: 4af0 423e c4cb b03e 5937 01bd ad25 75bd
00000280: 21f6 b9bd f116 3cbe 6b45 2b3e 099b 493f
00000290: fe6e 4cbe 5000 54be 0c8c fa3c dec4 153e
000002a0: 22cf 24bf 364d 1c3d dc25 5abe c3e2 48be
000002b0: f9a2 ea3d e2a0 ee3d 72f6 5fbd 1ee7 05be
000002c0: 2a2b 713e c64c 34bd 18e8 08bd 894b 873b
000002d0: d368 b1bd ebcf 303f d52b 85bd 2d5b 07be
000002e0: 5c56 183e ef27 31be 6930 083b 2b38 26be
000002f0: 09ed a43d 5f31 093d c023 02be 3205 5abe
00000300: 6251 9a3e f136 1f3e 92a0 3f3b 3171 db3d
00000310: 4028 88be 5466 5c3e 71d2 6e3e d6d6 12bd
00000320: 7609 6dbd 2817 d63e ebbb 07be 4116 ab3d
00000330: 187a 113e 196d 87be f506 d1bc b320 e93b
00000340: 5457 acbd 8d1c 063d a425 a23e a73a d83d
00000350: 469c 4a3e 5dd1 7abb d206 7a3e 345f 63be
00000360: f4f4 bebe c2d6 643e e881 13bf ba50 ad3e
00000370: 3401 0dbf c003 ffbd 2254 f4be b7b0 8e3e
00000380: 583b efbe 68d6 17be 8c97 e6bd 12cd e6bd
00000390: be50 a0be 98ef 2e3e d31a 79bb 1c05 b5bd
000003a0: ae48 c43d e5f2 90bd b7cc b63e 2e7a d63c
000003b0: 6386 d83d b9b4 d9be 55e8 e6be 0e73 1abe
000003c0: 14cd 1d3f 6f69 42be a0c9 783e 0de6 39bd
000003d0: bbf8 1a3d 0f32 c83d 8c2e 93bd f162 963d
000003e0: 0ced 6b3e 961f b3bd 9825 253d e6c5 dd3c
000003f0: 7fa5 55bd 1480 933e b8b3 aabf 4013 023e

network.lstm.weight_hh_l0 f4 [200, 50]
-0.16873555 0.04997793 -0.014456327 0.34528995 0.16926005 -0.026593383 0.05237685 0.17994541
0.20136793 -0.14322987 -0.106207736 -0.26886243 -0.049289413 -0.042662643 0.067581154 -0.3108925
0.31705347 0.30170566 0.2815464 0.45470697 0.075304024 -0.23891337 0.17194013 0.071579516
0.22250858 0.06598885 0.19493279 0.23447382 -0.089179456 -0.083417125 0.26414648 0.2947586
-0.1557405 -0.24183095 0.07270312 -0.4894559 -0.09148618 0.05653125 -0.3559562 0.2821174
0.45665535 -0.00058924686 0.10845832 0.2858533 -0.033033602 -0.13409215 0.08565675 0.2514498
0.2764429 0.073494755 -0.21776198 0.23084982 -0.44651696 -0.056956224 0.030632932 -0.2111387
0.018442707 0.14327297 0.15160064 0.33024943 0.037059113 0.20571123 0.013165661 0.016763186
0.047489777 0.18985885 0.144805 0.16571724 0.16476789 -0.1568153 -0.20320706 0.19473492
0.22312683 -0.07524466 -0.26698998 0.01726966 0.052527778 0.2503613 -0.12935485 -0.1565959
-0.2913712 0.19547422 -0.061571933 0.36312863 -0.1139078 0.1968428 0.4944532 -0.2816788
0.13429758 -0.078227825 -0.386109 0.33224446 -0.037017703 0.0751341 -0.13023251 -0.33230197
0.122564435 0.22130461 0.5234124 -0.019217405 0.15356195 -0.044256553 -0.20948158 -0.02447713
0.14264216 -0.33374444 0.19524775 0.6138088 0.08225913 -0.11985259 -0.08500005 -0.19124879
-0.095311455 -0.04389322 0.297882 -0.2187866 0.21631749 0.14129347 -0.24464476 0.047301438
-0.038610123 -0.078861214 0.14129846 -0.013133955 -0.18035594 -0.048766606 -0.028082086 -0.21076018
-0.19806625 -0.19884741 0.08504976 0.17891333 -0.44632316 -0.36460143 0.19877037 -0.40251943
-0.46997407 0.22122361 -0.104889706 -0.12006653 0.4299668 -0.1510446 0.1629544 -0.45491907
0.06262571 0.19330405 -0.14176176 0.15005983 0.06425449 0.1564811 0.116851054 0.018074704
0.086880594 0.086306244 -0.29874367 -0.45523292 0.25121972 0.0042845467 0.2000968 0.11706755
-0.07539779 -0.15366098 -0.23269449 -0.14842129 0.15219788 -0.63024706 0.31508946 0.3045759
-0.3195553 0.81036484 0.268074 0.098336175 -0.4975288 0.16727848 0.24069859 -0.20708233
0.095001824 -0.47483814 -0.17473559 0.11412863 0.7300508 0.12356031 -0.10611907 -0.2584913
0.32832876 -1.0632594 -0.38138232 0.6803145 0.04769788 -0.31639642 0.38313958 -0.28093717
0.15286095 -0.11487574 0.6008962 0.19813097 -0.16737486 0.15538973 -0.0678098 0.038955074
-0.17611425 0.2517977 -0.017438682 -0.20040452 -0.101974905 0.27152675 -0.37611628 -0.45709327
-0.33217594 0.22060446 0.65167373 -0.1599149 0.0027914168 0.26124492 -0.038781427 0.22235742
-0.2673085 -0.0037691665 0.06257021 -0.39583454 0.10151944 0.3891881 0.17393558 -0.21968582
-0.07469872 0.14313595 -0.7177118 -0.083784334 0.24981621 -0.19597755 0.0785312 -0.27784687
0.60855913 0.059113976 -0.07718127 0.17828646 0.4721347 -0.27233192 0.39218447 0.16955762
0.124728635 -0.013968753 0.83296037 0.4228231 -0.3683119 0.40367132 0.50191325 -0.26408386
0.02963078 -0.057416726 -0.028619783 -0.12219095 -0.05159774 -0.14266546 -0.13207334 0.07724644
00000000: 03c9 2cbe a8b5 4c3d 3bda 6cbc d8c9 b03e
00000010: 8252 2d3e 5eda d9bc 1c89 563d 9c43 383e
00000020: 6533 4e3e daaa 12be 7183 d9bd 56a8 89be
00000030: b2e3 49bd 06bf 2ebd fd67 8a3d 4d2d 9fbe
00000040: d554 a23e 2a79 9a3e da26 903e 5acf e83e
00000050: ff38 9a3d b5a5 74be 1311 303e 4898 923d
00000060: 4ad9 633e 2a25 873d 769c 473e e819 703e
00000070: b8a3 b6bd 99d6 aabd 353e 873e 99ea 963e
00000080: 707a 1fbe 88a2 77be 60e5 943d f799 fabe
00000090: 1b5d bbbd 508d 673d e43f b6be b171 903e
000000a0: bbce e93e b077 1aba 651f de3d 5d5b 923e
000000b0: 3e4e 07bd 744f 09be ce6c af3d 07be 803e
000000c0: ec89 8d3e 6b84 963d fffc 5ebe e563 6c3e
000000d0: df9d e4be ee4a 69bd eaf1 fa3c be34 58be
000000e0: 2915 973c 26b6 123e 333d 1b3e 7416 a93e
000000f0: 4ccb 173d f7a5 523e c9b4 573c f352 893c
00000100: a484 423d 5c6a 423e c347 143e c8b1 293e
00000110: eab8 283e 3194 20be 8315 50be 9768 473e
00000120: 5c7b 643e df19 9abd e9b2 88be 1a79 8d3c
00000130: 5e27 573d 5b2f 803e 9975 04be ad5a 20be
00000140: 9b2e 95be 652a 483e da32 7cbd ffeb b93e
00000150: 7e48 e9bd 2991 493e f828 fd3e 3438 90be
00000160: 4e85 093e e935 a0bd 14b0 c5be f21b aa3e
00000170: e09f 17bd e8df 993d ac5b 05be 7c23 aabe
00000180: 1003 fb3d ad9d 623e 5bfe 053f d26d 9dbc
00000190: 583f 1d3e 5c46 35bd 5782 56be 4384 c8bc
000001a0: c910 123e 8de0 aabe 07ef 473e 9322 1d3f
000001b0: 7a77 a83d 4675 f5bd 8214 aebd b9d6 43be
000001c0: a732 c3bd 61c9 33bd fd83 983e 9809 60be
000001d0: 5582 5d3e 3caf 103e 2884 7abe 27bf 413d
000001e0: a625 1ebd fd81 a1bd 8bb0 103e cd2f 57bc
000001f0: 3aaf 38be 7ebf 47bd 670c e6bc 84d1 57be
00000200: e1d1 4abe a89e 4bbe 922e ae3d 0e35 373e
00000210: 7884 e4be 0aad babe 768a 4b3e 0717 cebe
00000220: 71a0 f0be 7188 623e 6ad0 d6bd 71e5 f5bd
00000230: 9c24 dc3e 70ab 1abe 85dd 263e 27eb e8be
00000240: e941 803d 7ff1 453e ff29 11be 49a9 193e
00000250: dc97 833d 953c 203e 9b4f ef3d 6711 943c
00000260: 74ee b13d 54c1 b03d eef4 98be 4a14 e9be
00000270: df9f 803e 6265 8c3b 2de6 4c3e 1dc1 ef3d
00000280: 286a 9abd 4e59 1dbe 7747 6ebe c0fb 17be
00000290: c3d9 1b3e df57 21bf 6853 a13e 5ff1 9b3e
000002a0: c19c a3be 1274 4f3f ff40 893e 7a64 c93d
000002b0: 18bc febe 0d4b 2b3e b179 763e 640d 54be
000002c0: 5190 c23d fc1d f3be e3ed 32be 45bc e93d
000002d0: 9ce4 3a3f 300d fd3d f454 d9bd f958 84be
000002e0: b51a a83e e218 88bf 8b44 c3be 1729 2e3f
000002f0: da5e 433d b6fe a1be df2a c43e ffd6 8fbe
00000300: 9587 1c3e f943 ebbd 55d4 193f d8e2 4a3e
00000310: 5164 2bbe 7c1e 1f3e dddf 8abd 5b8f 1f3d
00000320: 4b57 34be a1eb 803e 91db 8ebc d836 4dbe
00000330: 38d8 d0bd 8e05 8b3e 5092 c0be 2108 eabe
00000340: f712 aabe 23e6 613e 17d4 263f bbc0 23be
00000350: 34f0 363b e5c1 853e 46d9 1ebd aab1 633e
00000360: a9dc 88be 1f04 77bb cf24 803d d3aa cabe
00000370: 6de9 cf3d aa43 c73e 2b1c 323e 52f5 60be
00000380: a4fb 98bd 3b92 123e f6bb 37bf 1f97 abbd
00000390: d2cf 7f3e 57ae 48be f7d4 a03d f241 8ebe
000003a0: 88ca 1b3f 7f21 723d 3711 9ebd ba90 363e
000003b0: a4bb f13e 176f 8bbe 67cc c83e 83a0 2d3e
000003c0: ba71 ff3d 32dd 64bc e43c 553f 457c d83e
000003d0: 6193 bcbe 02ae ce3e 637d 003f 0036 87be
000003e0: 40bc f23c cd2d 6bbd 0974 eabc 403f fabd
000003f0: 2758 53bd e516 12be 3c3e 07be 6233 9e3d

network.lstm.bias_ih_l0 f4 [200]
0.07534178 -0.14704262 -0.17545746 -0.11584666 -0.31123894 -0.11718945 -0.3174851 -0.029914021
0.30926585 -0.12269561 0.63905287 -0.1210303 -0.01105645 0.46647847 -0.015107896 -0.11680562
0.009064353 0.12121859 -0.31817663 0.18609484 0.018270679 0.1673838 0.25536746 -0.0037297565
0.15910132 -0.107839294 0.13208145 0.0011513656 0.041724376 0.028987685 -0.08824167 0.23152515
0.41803133 -0.08774926 0.034098808 -0.23463665 0.06658491 -0.23329897 0.09176019 0.10869994
0.09242881 -0.24704221 -0.02209144 -0.045929454 -0.021119641 -0.11918009 0.6065606 -0.004140309
0.23553132 0.103573725 -0.0047328654 0.0033397994 -0.022983134 0.030714508 0.45080784 0.065656364
0.37445006 -0.06519104 0.09495756 0.10797634 0.25294596 0.42767912 0.34930557 0.16475397
0.024254486 0.044737928 0.18272007 0.0045829047 -0.11461909 0.22221185 0.032032285 0.21638475
0.05250141 0.019143036 0.1381942 0.095091835 0.26282313 0.062961645 0.1017493 0.06906962
0.37549967 0.310391 0.36145613 -0.09436437 0.12658732 0.29516447 0.2169869 0.13146733
0.1933737 -0.07454594 0.17917813 0.22663964 0.14776637 0.094877474 0.35673022 0.028997032
0.42967823 0.4063828 0.32394722 0.011991254 -0.33908957 0.15749615 0.15728721 0.14737369
0.23506615 -0.028046422 0.14090495 0.27342275 0.20797698 -0.17485915 -0.20288391 -0.18345863
-0.027714057 -0.33213443 -0.27503806 -0.0839947 0.25795713 -0.063711554 -0.24495812 -0.06289592
-0.054491494 -0.54962903 -0.09588928 -0.034171633 0.5522163 -0.12445181 0.11138112 0.12496035
-0.28143102 -0.22656108 -0.116503105 0.8653468 -0.47784606 -0.04464738 0.14517161 0.22551964
-0.14491093 -0.0034706565 -0.1720864 -0.0854712 -0.046766512 -0.110761985 -0.067246616 0.11891246
0.08015742 -0.002597929 -0.32263428 0.14447662 -0.1363608 -0.09150358 0.0714779 0.14768536
0.19920817 -0.10793836 0.31057197 -0.01244865 0.066302024 0.120498635 0.27041805 0.10166142
0.24536511 0.17904066 -0.04121839 0.07375526 -0.059995476 -0.12972775 0.45293576 -0.020181708
0.012529627 0.14955093 0.0028181258 1.0630258 -0.005344738 0.039120063 0.3769622 -0.16426966
0.22474974 0.052449964 -0.058632318 0.14449379 0.19599724 0.6604877 0.028538859 0.15253764
-0.0008666666 0.17174335 0.17441046 0.056095414 0.24527596 0.045987513 0.047916576 0.1354321
0.09808928 0.29279715 0.09291961 0.18055306 0.12773885 0.31473717 0.06918368 0.0038887903
00000000: cb4c 9a3d 5792 16be 1fab 33be 0441 edbd
00000010: b65a 9fbe 0601 f0bd 688d a2be 400e f5bc
00000020: 1858 9e3e d647 fbbd f898 233f bcde f7bd
00000030: 1d26 35bc 44d6 ee3e 1c87 77bc c937 efbd
00000040: a782 143c 7441 f83d 0ce8 a2be a58f 3e3e
00000050: 64ac 953c a966 2b3e 86bf 823e ee6e 74bb
00000060: 75eb 223e d9da dcbd 5c40 073e 6be9 963a
00000070: 2ee7 2a3d 9577 ed3c 0cb8 b4bd ee14 6d3e
00000080: 3408 d63e e2b5 b3bd 31ab 0b3d 9744 70be
00000090: ab5d 883d ede5 6ebe c4ec bb3d 139e de3d
000000a0: 514b bd3d a2f8 7cbe 1cf9 b4bc 8620 3cbd
000000b0: 1903 adbc b114 f4bd 8e47 1b3f 6eab 87bb
000000c0: 1f2f 713e 761e d43d 2716 9bbb 89e0 5a3b
000000d0: 2047 bcbc fe9c fb3c 49d0 e63e d876 863d
000000e0: ebb7 bf3e e182 85bd 1c79 c23d b322 dd3d
000000f0: 2282 813e c2f8 da3e 2ed8 b23e 44b5 283e
00000100: 58b1 c63c 1e3f 373d f81a 3b3e 312c 963b
00000110: 6abd eabd 818b 633e 4934 033d f793 5d3e
00000120: b80b 573d dbd1 9c3c c882 0d3e 82bf c23d
00000130: c190 863e 09f2 803d f061 d03d 5f74 8d3d
00000140: 7e41 c03e 92eb 9e3e c710 b93e 1b42 c1bd
00000150: 1ba0 013e cc1f 973e d031 5e3e 5f9f 063e
00000160: c103 463e 8bab 98bd 797a 373e 3914 683e
00000170: 1150 173e 1f4f c23d 58a5 b63e 2f8b ed3c
00000180: c9fe db3e 6811 d03e 69dc a53e f776 443c
00000190: 269d adbe ac46 213e e60f 213e 21e9 163e
000001a0: 2eb5 703e 9cc1 e5bc 6349 103e 11fe 8b3e
000001b0: ebf7 543e 470e 33be cdc0 4fbe 94dc 3bbe
000001c0: 9708 e3bc 860d aabe cad1 8cbe 6a05 acbd
000001d0: f512 843e 347b 82bd 4dd6 7abe 93cf 80bd
000001e0: 7932 5fbd 7db4 0cbf 9961 c4bd 8ef7 0bbd
000001f0: 0c5e 0d3f 97e0 febd c91b e43d 36eb ff3d
00000200: ba17 90be a1ff 67be 2e99 eebd 5e87 5d3f
00000210: 3da8 f4be 2ce0 36bd dea7 143e 9fee 663e
00000220: 8863 14be f473 63bb 6b37 30be 860b afbd
00000230: 3e8e 3fbd 2ed7 e2bd 98b8 89bd 6088 f33d
00000240: 9329 a43d 0442 2abb 5230 a5be aef1 133e
00000250: 2aa2 0bbe 3b66 bbbd 0163 923d d53a 173e
00000260: 3afd 4b3e c90e ddbd 4a03 9f3e 6cf5 4bbc
00000270: 5bc9 873d fdc7 f63d 3c74 8a3e dd33 d03d
00000280: fe40 7b3e 6f56 373e 9dd4 28bd ff0c 973d
00000290: d1bd 75bd 5ad7 04be 32e7 e73e 1c54 a5bc
000002a0: 1149 4d3c e123 193e 4eb0 383b 3b11 883f
000002b0: e922 afbb 5c3c 203d 3101 c13e 4e36 28be
000002c0: cc24 663e c6d5 563d 7128 70bd 2ef6 133e
000002d0: 80b3 483e b915 293f 53ca e93c d432 1c3e
000002e0: 0331 63ba 7ddd 2f3e a898 323e 4ec4 653d
000002f0: 9f29 7b3e 675d 3c3d 2c44 443d b6ae 0a3e
00000300: 08e3 c83d 82e9 953e a34c be3d e7e2 383e
00000310: f9cd 023e 3b25 a13e 2cb0 8d3d 13db 7e3b

network.lstm.bias_hh_l0 f4 [200]
0.07608829 0.03166188 -0.084721595 0.020041391 -0.05934953 0.013352468 -0.2410646 -0.09451359
0.3246775 -0.21516714 0.47400388 -0.17030942 0.057860624 0.5328899 -0.0129333595 0.097954094
0.1537313 -0.011244928 -0.26925159 0.19180548 0.039866198 0.20535368 0.2149864 0.05859687
0.15533268 0.0030561395 0.21774408 0.085752845 -0.045006648 -0.08354266 -0.18593751 0.058510475
0.42575592 0.007553981 -0.07295137 -0.07150789 -0.12036689 -0.10556597 -0.045530446 -0.12474814
0.21802229 -0.3415813 0.030928554 -0.16638173 -0.018990137 0.07990826 0.47272342 0.15923795
0.22378768 0.204697 0.103916414 -0.0066809733 -0.10918285 -0.14035465 0.48382956 -0.010170572
0.288319 0.041042164 0.0680045 -0.10962417 0.3877801 0.41680422 0.21392179 0.20782788
0.20467022 0.057886783 0.02742457 0.0788721 -0.16892184 0.28894812 -0.075280614 0.20392609
0.13049649 0.10939921 0.2347804 0.054637376 0.19460481 0.043892957 -0.06787318 0.099487
0.3152738 0.118944 0.356892 -0.10364922 0.26352176 0.2864377 0.36583292 0.3020084
0.24177769 -0.1627486 0.14518505 0.24342795 0.2308512 0.12164625 0.22050306 0.15051185
0.30755818 0.25002524 0.3902405 -0.060409155 -0.3121533 0.14551947 0.3988434 0.31142136
0.17772894 0.011325892 0.111188024 0.2777174 0.17847413 -0.37552604 -0.36747923 -0.035038356
-0.102188215 -0.26604402 -0.21155678 -0.1314546 0.3045056 0.08121421 -0.0957531 0.1585241
0.04803258 -0.3471309 0.0012720388 0.07047679 0.38878816 -0.3614401 0.2991532 0.17225529
-0.33308935 -0.23888259 0.076895736 0.95476395 -0.26889575 0.13747568 0.015829846 0.14594518
-0.16915062 0.029946784 0.020197809 -0.071066566 0.0563262 -0.20887169 -0.15171032 0.21613307
0.06373529 0.09959475 -0.27848366 0.14796166 -0.07068117 -0.16353501 -0.048416086 0.17339404
0.11058375 -0.14351045 0.12040213 0.07188584 0.2507765 0.080012195 0.22994502 0.16687334
0.19876194 0.12790434 -0.01013516 0.096409775 -0.047294904 0.08679844 0.48998675 0.034607667
-0.060213473 -0.0243681 0.18645538 0.99229556 0.03876698 0.12256869 0.60718775 0.11080605
0.15202886 0.02449458 0.07495214 -0.07072376 0.22176296 0.82804215 0.2100123 0.15560128
0.0018959083 0.18273117 0.17017055 0.13680507 0.26339898 -0.14901301 0.13572924 0.044068534
-0.029675646 0.077633 0.16954151 0.09558737 0.25319585 0.31362376 0.09205139 0.025323806
00000000: 2dd4 9b3d e3af 013d 8482 adbd d82d a43c
00000010: 7e18 73bd 4fc4 5a3c a3d9 76be 5790 c1bd
00000020: 213c a63e c654 5cbe a3b0 f23e 9865 2ebe
00000030: 43ff 6c3d 796b 083f 71e6 53bc 289c c83d
00000040: bd6b 1d3e a63c 38bc 58db 89be a868 443e
00000050: bd4a 233d 3c48 523e 6525 5c3e 4603 703d
00000060: 880f 1f3e 8349 483b 4ef8 5e3e 309f af3d
00000070: e458 38bd 6a18 abbd 6766 3ebe aea8 6f3d
00000080: aefc d93e 6387 f73b 8767 95bd bb72 92bd
00000090: eb82 f6bd f932 d8bd 227e 3abd f47b ffbd
000000a0: 3c41 5f3e bfe3 aebe e15d fd3c f95f 2abe
000000b0: 3491 9bbc f1a6 a33d ce08 f23e 460f 233e
000000c0: 9928 653e 179c 513e 21d2 d43d 11ec dabb
000000d0: 429b dfbd 21b9 0fbe 82b8 f73e 79a2 26bc
000000e0: 8c9e 933e d41b 283d f145 8b3d a382 e0bd
000000f0: 1d8b c63e 5d67 d53e 500e 5b3e d5d0 543e
00000100: 1295 513e b11a 6d3d 7ea9 e03c b287 a13d
00000110: d9f9 2cbe 02f1 933e b92c 9abd 00d2 503e
00000120: dfa0 053e b10c e03d 466a 703e 71cb 5f3d
00000130: 7c46 473e 1ac9 333d 1801 8bbd d7bf cb3d
00000140: 916b a13e e998 f33d 8cba b63e 0b46 d4bd
00000150: 53ec 863e f6a7 923e 744e bb3e d8a0 9a3e
00000160: 9294 773e 92a7 26be 64ab 143e 2d45 793e
00000170: 4264 6c3e ab21 f93d 8ecb 613e c71f 1a3e
00000180: 4478 9d3e 4f03 803e 9acd c73e 976f 77bd
00000190: 8fd2 9fbe 0e03 153e 3435 cc3e 9f72 9f3e
000001a0: 93fe 353e 3c90 393c 8cb6 e33d fa30 8e3e
000001b0: ecc1 363e f344 c0be 3d26 bcbe 6184 0fbd
000001c0: 0e48 d1bd ec36 88be 57a2 58be 099c 06be
000001d0: 28e8 9b3e a353 a63d 341a c4bd 2454 223e
000001e0: d0bd 443d 24bb b1be 8aba a63a 2356 903d
000001f0: 3e0f c73e ad0e b9be 9c2a 993e b163 303e
00000200: b08a aabe a39d 74be 837b 9d3d 696b 743f
00000210: b4ac 89be 6dc6 0c3e 98ad 813c a772 153e
00000220: d235 2dbe f552 f53c e075 a53c 598b 91bd
00000230: 4db6 663d 76e2 55be f359 1bbe fd51 5d3e
00000240: a687 823d 55f8 cb3d 6995 8ebe 4383 173e
00000250: 4ac1 90bd b975 27be f24f 46bd 358e 313e
00000260: bc79 e23d 67f4 12be 6495 f63d e238 933d
00000270: c765 803e 6fdd a33d b576 6b3e d8e0 2a3e
00000280: 4088 4b3e 5bf9 023e f10d 26bc 7d72 c53d
00000290: 4db8 41bd 61c3 b13d 8bdf fa3e c5c0 0d3d
000002a0: 67a2 76bd 9c9f c7bc 29ee 3e3e 1507 7e3f
000002b0: 20ca 1e3d 4b05 fb3d a870 1b3f 48ee e23d
000002c0: 74ad 1b3e dca8 c83c 8280 993d 9ed7 90bd
000002d0: d415 633e 92fa 533f 770d 573e f155 1f3e
000002e0: 2080 f83a e11d 3b3e 3041 2e3e a116 0c3e
000002f0: 3bdc 863e de96 18be 9bfc 0a3e 3581 343d
00000300: 571a f3bc 0dfe 9e3d 4a9c 2d3e 50c3 c33d
00000310: e3a2 813e 4b93 a03e 7085 bc3d df73 cf3c

network.lstm.weight_ih_l1 f4 [200, 50]
0.06761391 -0.15679745 -0.0661046 0.22702411 -0.1718702 0.09639407 0.072583266 -0.061778132
0.16015439 -0.20855197 0.14544253 0.019315729 0.11775702 0.03925651 0.5504475 0.2602144
0.36553183 0.45276058 0.07027784 0.18116112 0.23849343 0.3865247 -0.21508645 -0.08587352
-0.37673602 -0.11584776 0.23274645 -0.040157206 -0.0063678473 -0.13695715 0.064570375 -0.031937495
-0.03570136 -0.13952796 -0.3543632 -0.14373313 0.27836347 0.05565879 -0.45170435 0.6455683
-0.055430304 -0.059609246 -0.73825556 0.12885939 -0.47333452 0.47652173 0.42149284 -0.031642318
0.18717389 -0.01205607 0.06141076 -0.051853385 -0.15753807 0.44252634 -0.13762823 0.04720715
-0.08354319 -0.12701565 0.09811704 0.47336698 -0.02736745 0.06903091 -0.12622342 -0.1116337
0.00880686 -0.39204398 0.008950637 0.04015248 -0.1409619 0.3977859 0.12224236 0.051186293
-0.12008359 -0.18232755 0.011132819 0.27598497 -0.013433443 0.1338539 -0.18457572 0.11072355
0.20063752 0.11973099 -0.17742002 -0.046002492 -0.0041963533 0.1283787 0.42754942 0.10373482
0.05461683 0.2882067 0.14367397 -0.10110647 -0.064758025 -0.10769419 -0.012176613 0.11885601
-0.008466087 0.49528515 -0.34091467 0.037743498 0.08699705 -0.21241489 0.051050127 0.16116226
0.2276415 0.44804618 0.138925 -0.4389416 -0.2028712 0.7300849 0.17459045 -0.20207015
-0.14315498 0.12808692 0.24253571 0.08783622 -0.0886634 0.50790316 -0.026035132 0.07206792
-0.5772628 0.05076722 -0.18107699 -0.09261374 -0.2249348 0.36970717 -0.31456625 -0.15528625
-0.060180787 0.16237916 0.2990907 -0.12152613 0.29137716 -0.39818692 -0.16424654 -0.22354123
0.051352214 -0.062238 -0.177972 0.39205906 -0.14822447 -0.1819601 0.25980422 0.32866406
-0.14529362 0.043930896 -0.15262093 -0.11064629 -0.1832309 -0.09558934 0.607461 -0.707605
-0.36314982 -0.30189294 -0.34799734 0.18868616 -0.30937594 0.3149997 0.24904686 0.21682386
-0.023669967 -0.023739021 0.0405595 -0.58794266 -0.01096214 0.34761387 -0.053508785 0.28335252
0.10028061 -0.06449792 0.48808584 0.08873601 0.24736635 0.27311423 -0.25241113 0.011209054
-0.32619822 -0.2008681 0.55075663 0.3633932 0.10300963 0.18988544 -0.08326271 -0.08668516
-0.59476364 -0.710207 0.15193924 -0.12536052 -0.2134916 0.41226897 -0.65180725 -0.0969592
-0.20547286 -0.48248327 -0.42491522 0.046062954 0.49101707 0.2359672 0.12640114 0.26775232
0.197232 0.08711541 -0.036161464 0.29673615 0.11163928 0.23307176 -0.5805938 0.12118476
0.0205567 -0.073445424 0.17732961 -0.122734435 0.27791417 -0.25066853 0.06781035 -0.33446953
-0.0036196262 -0.1463461 -0.07816226 -0.2033636 0.00053338276 -0.0457917 0.08395222 0.34331736
-0.16205864 -0.2826116 0.22089958 -0.2636668 -0.036711834 0.17222449 -0.17491168 0.014379611
0.06637201 0.15076825 -0.1889884 0.4568788 0.01794967 -0.01951494 -0.012975794 0.39685845
0.39462924 0.32349685 -0.15824787 -0.47248536 -0.087760456 0.11494758 0.07147413 0.1730377
-0.1062425 -0.18452188 0.061521593 0.24457131 -0.1278052 -0.0013478617 -0.198797 -0.11604483
00000000: 2979 8a3d 838f 20be d961 87bd 0279 683e
00000010: befe 2fbe 416a c53d 89a6 943d 110b 7dbd
00000020: 83ff 233e a68e 55be e3ee 143e 053c 9e3c
00000030: 982a f13d 6fcb 203d 21ea 0c3f d23a 853e
00000040: fd26 bb3e 3cd0 e73e d4ed 8f3d 4d82 393e
00000050: 9f37 743e 91e6 c53e 9f3f 5cbe 75de afbd
00000060: 8be3 c0be 9741 edbd 1655 6e3e e27b 24bd
00000070: 60a9 d0bb 7f3e 0cbe 793d 843d e4d0 02bd
00000080: 973b 12bd 6be0 0ebe 186f b5be c72e 13be
00000090: a885 8e3e 79fa 633d cb45 e7be f743 253f
000000a0: e30a 63bd d328 74bd 51fe 3cbf b7f3 033e
000000b0: e758 f2be a8fa f33e e9cd d73e 609b 01bd
000000c0: 83aa 3f3e d386 45bc d989 7b3d 3764 54bd
000000d0: a951 21be d092 e23e 6aee 0cbe 495c 413d
000000e0: b118 abbd 6410 02be 96f1 c83d 285d f23e
000000f0: b431 e0bc 1460 8d3d b640 01be 36a0 e4bd
00000100: a64a 103c fdb9 c8be b1a5 123c ed76 243d
00000110: 5158 10be 98aa cb3e 345a fa3d b8a8 513d
00000120: 63ee f5bd 13b4 3abe 6d66 363c e74d 8d3e
00000130: f217 5cbc ff10 093e 6b01 3dbe 07c3 e23d
00000140: ec73 4d3e 8535 f53d 98ad 35be 1c6d 3cbd
00000150: 9081 89bb b575 033e c2e7 da3e ec72 d43d
00000160: e6b5 5f3d d48f 933e 451f 133e e910 cfbd
00000170: db9f 84bd c68e dcbd 6b80 47bc c86a f33d
00000180: 58b5 0abc 0496 fd3e 5e8c aebe ed98 1a3d
00000190: 822b b23d 4a83 59be f019 513d b807 253e
000001a0: da1a 693e 4f66 e53e 5b42 0e3e f4bc e0be
000001b0: 78bd 4fbe d8e6 3a3f d7c7 323e 7aeb 4ebe
000001c0: 3897 12be 3829 033e 485b 783e 7ae3 b33d
000001d0: 2895 b5bd f105 023f a147 d5bc 5898 933d
000001e0: 7fc7 13bf 4af1 4f3d 3f6c 39be 46ac bdbd
000001f0: 4f55 66be 424a bd3e d40e a1be 5c03 1fbe
00000200: 2180 76bd b946 263e 6b22 993e b1e2 f8bd
00000210: 632f 953e 28df cbbe 3f30 28be fee7 64be
00000220: b356 523d 46ed 7ebd 4b3e 36be f7bb c83e
00000230: 28c8 17be c053 3abe 0f05 853e a846 a83e
00000240: dac7 14be e2f0 333d a948 1cbe 869a e2bd
00000250: e2a0 3bbe 58c4 c3bd 9082 1b3f 9a25 35bf
00000260: c6ee b9be b691 9abe b52c b2be f236 413e
00000270: 8666 9ebe a447 a13e 2406 7f3e 1307 5e3e
00000280: 85e7 c1bc 5678 c2bc b821 263d 6983 16bf
00000290: 8c9a 33bc 72fa b13e 072c 5bbd 9513 913e
000002a0: ec5f cd3d 7c17 84bd 63e6 f93e 3abb b53d
000002b0: 9b4d 7d3e a1d5 8b3e 083c 81be 2ea6 373c
000002c0: 7403 a7be 5eb0 4dbe 63fe 0c3f ac0e ba3e
000002d0: b7f6 d23d 5471 423e a485 aabd fd87 b1bd
000002e0: 6e42 18bf 20d0 35bf f695 1b3e 825e 00be
000002f0: 8b9d 5abe eb14 d33e d7dc 26bf 8c92 c6bd
00000300: 7a67 52be 0c08 f7be 7d8e d9be 82ac 3c3d
00000310: 9766 fb3e 63a1 713e 4d6f 013e d516 893e
00000320: 2ff7 493e 9069 b23d 0b1e 14bd cded 973e
00000330: 23a3 e43d 5daa 6e3e cca1 14bf b72f f83d
00000340: 8666 a83c 8e6a 96bd e595 353e 315c fbbd
00000350: c44a 8e3e a057 80be 27e0 8a3d 973f abbe
00000360: 4037 6dbb c1db 15be 8913 a0bd 8c3e 50be
00000370: b6d2 0b3a 1490 3bbd 24ef ab3d 4bc7 af3e
00000380: b3f2 25be 78b2 90be 8033 623e 56ff 86be
00000390: 265f 16bd 9e5b 303e 0c1c 33be 7698 6b3c
000003a0: 0cee 873d fe62 1a3e 2d86 41be 05ec e93e
000003b0: 300b 933c ccdd 9fbc 6d98 54bc 0831 cb3e
000003c0: d80c ca3e 61a1 a53e bb0b 22be 9ae9 f1be
000003d0: c1bb b3bd a369 eb3d 0761 923d cb30 313e
000003e0: ab95 d9bd 4ef3 3cbe 11fe 7b3d e770 7a3e
000003f0: 5edf 02be bcaa b0ba 7191 4bbe e9a8 edbd

network.lstm.weight_hh_l1 f4 [200, 50]
0.021611301 0.17105892 0.023609824 -0.2483182 0.0048640245 0.26517934 0.28948453 0.38159126
-0.07872308 -0.17137095 -0.22051117 0.0057425555 -0.3857383 0.1285965 -0.05550836 -0.047501143
-0.3290504 -0.18130007 -0.3758701 -0.19141455 -0.07770493 -0.1421883 0.12973495 -0.2880485
0.1874896 -0.005377248 0.057659727 -0.33987486 0.13743739 0.021685254 0.22126073 0.12893562
-0.06444642 0.2654387 0.11029931 -0.32651407 -0.278327 -0.2531646 0.12108413 -0.22771765
0.44540927 0.09843641 0.039112523 0.3732318 0.087965414 -0.07262667 0.11965733 0.036830388
-0.0017233798 -0.00063713774 -0.19637284 -0.026007919 0.16572699 -0.02739666 0.0640966 0.25373343
0.049232952 0.31268415 -0.19924532 0.07585814 -0.10840652 0.0076106037 0.023702055 -0.2520944
0.109273285 0.075764425 0.08445118 0.18230626 -0.16635473 -0.0090336315 -0.6001371 -0.22009751
-0.09115384 -0.24971926 0.18080334 0.29060397 0.018485826 -0.2932804 0.23408343 0.07843411
0.1830719 -0.34006646 0.013923015 0.17515528 0.10008608 -0.30951932 -0.13114524 0.0053802226
0.07046101 -0.09040104 -0.107341714 0.061796032 0.14453872 0.26864973 -0.18232502 0.2505936
0.01691841 0.08724104 0.13939117 0.013491983 -0.20139505 -0.04196634 0.2788318 0.14460996
0.064582296 0.10468811 -0.11349071 -0.21373121 -0.028028201 0.1424762 -0.07623003 0.039784137
-0.1614105 -0.024077512 -0.45575786 -0.1928583 0.13311815 -0.14211227 -0.038627643 0.080260515
-0.09156047 0.15289685 0.22667216 -0.19310896 0.057802442 -0.27450448 -0.17235725 0.08021683
0.47435912 -0.35676998 -0.107282914 0.26389328 -0.06373335 0.096277334 -0.002689465 0.5031998
0.11769281 -0.15044762 0.1367243 -0.0520859 0.13734867 -0.14111699 0.40556422 -0.11994667
-0.24709846 0.12410675 -0.21202287 -0.34409356 -0.025978012 0.2003219 -0.011352521 0.24763495
-0.12683418 -0.04478237 0.034928646 0.5478958 0.1623414 0.027396867 0.36925235 0.08216391
-0.24441059 0.15642364 -0.06578809 0.06595545 0.14252606 -0.02756594 0.06004488 -0.0011529025
0.048454255 0.035695355 0.40369642 0.13722597 -0.0017102772 -0.21077903 0.19382733 -0.3030371
0.23024097 -0.24603702 0.3225808 -0.16116406 0.046294305 0.12355741 -0.22189055 0.36920536
-0.0976454 0.06489704 -0.4082469 -0.15358914 0.110105865 -0.15679364 -0.1360999 -0.020277673
-0.20188609 -0.005360799 -0.010351181 -0.058237683 0.25438294 0.16724554 0.13907601 -0.24060008
-0.114374176 0.25273934 -0.25533488 0.1982884 -0.09996838 0.21081276 -0.2250496 0.17271388
0.053333163 0.21907176 0.15420726 0.17238586 -0.15200049 0.048217524 0.14399603 -0.46092123
0.16995522 -0.26965 -0.24378996 0.09248645 0.01185648 0.13121676 -0.32469314 -0.29454145
0.06924047 -0.09953293 -0.20197013 -0.103263736 0.055811368 -0.19450438 0.16830537 0.13099712
-0.16155969 0.16026849 0.3902193 0.14767691 -0.3290564 -0.022722086 -0.049628567 0.19109593
0.020221317 0.2868636 0.121509716 0.37366074 -0.107799254 0.20530586 0.19841222 0.2848584
0.043453835 -0.24241538 -0.086828396 0.17062835 0.07972539 -0.01079267 0.13551658 -0.12355975
00000000: 2f0a b13c 122a 2f3e 6469 c13c 2047 7ebe
00000010: 6562 9f3b 96c5 873e 5137 943e ee5f c33e
00000020: 9139 a1bd de7b 2fbe aecd 61be 0c2c bc3b
00000030: 7e7f c5be cdae 033e bc5c 63bd 8f90 42bd
00000040: 4b79 a8be baa6 39be 0c72 c0be 2d02 44be
00000050: c323 9fbd cf99 11be 3dd9 043e 187b 93be
00000060: 46fd 3f3e a033 b0bb 9b2c 6c3d 1404 aebe
00000070: 63bc 0c3e 46a5 b13c 2c92 623e b307 043e
00000080: 7cfc 83bd 95e7 873e 9be4 e13d da2c a7be
00000090: e080 8ebe ca9e 81be f5fa f73d d12e 69be
000000a0: af0c e43e 0799 c93d 7434 203d 3d18 bf3e
000000b0: 3627 b43d 4bbd 94bd e70e f53d 76db 163d
000000c0: 08e3 e1ba 9705 27ba f615 49be 8f0e d5bc
000000d0: 56b4 293e f66e e0bc 1445 833d 59e9 813e
000000e0: 7ea8 493d 2318 a03e f706 4cbe 835b 9b3d
000000f0: 3d04 debd 5f62 f93b d02a c23c 8412 81be
00000100: acca df3d 612a 9b3d bef4 ac3d 7eae 3a3e
00000110: e558 2abe cc01 14bc 96a2 19bf 3e61 61be
00000120: ddae babd 68b6 7fbe 8324 393e 0bca 943e
00000130: 966f 973c d928 96be 91b3 6f3e 10a2 a03d
00000140: 3377 3b3e 311d aebe 5c1d 643c e85b 333e
00000150: eef9 cc3d 5179 9ebe f04a 06be 944c b03b
00000160: dd4d 903d 2e24 b9bd f9d5 dbbd d61d 7d3d
00000170: f501 143e 758c 893e 69b3 3abe ce4d 803e
00000180: 7a98 8a3c 6eab b23d 8fbc 0e3e 7a0d 5d3c
00000190: 813a 4ebe e6e4 2bbd 0bc3 8e3e a214 143e
000001a0: b943 843d b866 d63d d16d e8bd 5bdc 5abe
000001b0: 669b e5bc 48e5 113e 7d1e 9cbd b1f4 223d
000001c0: cb48 25be 343e c5bc 1859 e9be a57c 45be
000001d0: 2050 083e e185 11be 0538 1ebd a05f a43d
000001e0: 0e84 bbbd fe90 1c3e bf1c 683e 5bbe 45be
000001f0: 41c2 6c3d da8b 8cbe 6b7e 30be b948 a43d
00000200: 33df f23e 8eaa b6be 25b7 dbbd 051d 873e
00000210: a186 82bd 0d2d c53d bc41 30bb b4d1 003f
00000220: ee08 f13d f10e 1abe 7401 0c3e 0658 55bd
00000230: 21a5 0c3e f980 10be 1da6 cf3e 9aa6 f5bd
00000240: 6107 7dbe ae2b fe3d 861c 59be 082d b0be
00000250: d7cf d4bc 2f21 4d3e edff 39bc 0494 7d3e
00000260: d2e0 01be b86d 37bd 5711 0f3d e642 0c3f
00000270: d33c 263e 656f e03c a50e bd3e 8d45 a83d
00000280: c546 7abe 852d 203e e8bb 86bd a713 873d
00000290: 5af2 113e f7d1 e1bc 9ff1 753d fd1c 97ba
000002a0: f877 463d 4b35 123d 4cb1 ce3e f784 0c3e
000002b0: 612b e0ba 75d6 57be ac7a 463e ae27 9bbe
000002c0: 4ac4 6b3e 21f1 7bbe 5029 a53e 3108 25be
000002d0: 199f 3d3d ab0b fd3d 4737 63be 7c08 bd3e
000002e0: 50fa c7bd bde8 843d bd05 d1be 7946 1dbe
000002f0: 2f7f e13d 838e 20be c65d 0bbe 5d1d a6bc
00000300: 3abb 4ebe a4a9 afbb 0098 29bc a38a 6ebd
00000310: 7b3e 823e 6a42 2b3e f169 0e3e de5f 76be
00000320: 023d eabd 0d67 813e 41bb 82be 1d0c 4b3e
00000330: 39bc ccbd 4ddf 573e 6773 66be e8db 303e
00000340: e073 5a3d 5954 603e 82e8 1d3e eb85 303e
00000350: 04a6 1bbe bd7f 453d b273 133e defd ebbe
00000360: be08 2e3e 910f 8abe 13a4 79be 8969 bd3d
00000370: ae41 423c b05d 063e 2e3e a6be 23ce 96be
00000380: f3cd 8d3d ecd7 cbbd 42d1 4ebe f07b d3bd
00000390: 769a 643d 282c 47be 3e58 2c3e 1c24 063e
000003a0: e76f 25be 6c1d 243e d3ca c73e 9e38 173e
000003b0: 157a a8be ab23 babc 5347 4bbd a7ae 433e
000003c0: 2da7 a53c c9df 923e 16da f83d 7650 bf3e
000003d0: dbc5 dcbd b33b 523e 932c 4b3e f6d8 913e
000003e0: a6fc 313d bd3b 78be 16d3 b1bd 33b9 2e3e
000003f0: 1147 a33d bdd3 30bc dcc4 0a3e e50c fdbd

network.lstm.bias_ih_l1 f4 [200]
-0.14644286 0.024502434 -0.09943421 0.12992436 0.2659104 -0.22800893 -0.18069747 -0.26138023
-0.06333226 0.102116846 -0.032969862 -0.25281817 -0.34351164 -0.14687824 0.09493736 0.05279573
-0.2689623 0.16814148 0.030861719 -0.46947545 -0.148006 -0.1372045 -0.057724692 -0.119533986
-0.3315518 0.0008828412 -0.1371229 0.039188914 -0.071826085 0.10133126 -0.0058896085 -0.12527251
-0.06744985 0.08997933 -0.21566631 -0.020585597 -0.0824618 -0.10744836 0.16880973 -0.05066984
0.19689582 0.051166423 0.057405256 -0.12896474 -0.09249964 -0.33754867 0.06355479 0.009137212
0.256719 -0.08161012 0.451662 0.18995212 0.053155925 0.2740365 0.19048078 0.028386988
0.37595567 0.24136338 0.0076342765 -0.09276035 0.45581737 0.21894753 0.11430268 -0.024406997
0.09904897 0.13283764 0.5379674 0.065388694 0.22594094 0.22513992 -0.077541895 0.14364049
0.2545243 0.25404182 0.37631097 -0.04668022 0.13423662 0.04333643 0.15606114 0.28594208
0.4739564 0.24143517 0.263904 0.07752647 0.20029293 0.14907706 0.2971388 0.33367106
0.21693222 0.009686876 0.37163058 0.124499045 0.0431744 0.36082113 0.22361587 0.27856094
0.26072803 0.19614428 0.2229513 0.38174668 0.19894254 0.11274532 -0.00031015612 -0.11428795
-0.13017708 -0.06279811 0.060227662 -0.14488757 0.05739507 0.117941014 -0.16220848 0.052491017
0.016776009 0.110124655 -0.1700159 0.1503918 0.004104876 -0.19220586 0.07541145 0.13488874
0.023378562 0.041692622 -0.081606336 0.14382905 -0.0878998 -0.18261288 0.059926096 0.019464584
-0.07205333 0.019704675 -0.0114079965 0.016017703 -0.010650165 -0.0834822 -0.0038381196 0.09820239
0.06671937 0.098328054 -0.25083384 0.15552492 -0.032016337 0.08738954 -0.20398383 -0.03555948
-0.04682284 -0.019890578 0.18981981 -0.05876325 0.1431001 -0.10451603 0.11035553 -0.00493203
0.020549634 0.16320364 0.29214337 -0.09283385 0.09487173 0.10353666 0.03007186 -0.010865905
0.0566655 0.08382909 -0.111324996 0.13528052 0.20579186 -0.07885702 0.121694915 0.09247164
-0.09938907 0.08818406 0.10376573 0.10575419 0.048593994 0.15467781 -0.06238992 -0.11467076
-0.08236863 0.19988899 -0.068316564 0.073908515 -0.020538565 0.08556367 -0.026953632 -0.035388716
0.05625264 0.11367715 0.11760181 0.006389159 -0.014427405 -0.11200557 -0.14677674 0.13598204
0.23471615 -0.045751337 -0.021967547 0.13112465 0.16852969 0.12683171 0.21831423 0.15049282
00000000: 1ef5 15be 54b9 c83c 2aa4 cbbd e40a 053e
00000010: 6825 883e 2c7b 69be c208 39be a1d3 85be
00000020: 58b4 81bd a322 d13d 680b 07bd 6271 81be
00000030: c2e0 afbe 4067 16be 856e c23d 5640 583d
00000040: 6db5 89be 482d 2c3e b7d1 fc3c 165f f0be
00000050: e38e 17be 567f 0cbe ba70 6cbd 3cce f4bd
00000060: 28c1 a9be 786e 673a f269 0cbe 8e84 203d
00000070: 8e19 93bd c386 cf3d 9efd c0bb 7047 00be
00000080: 2623 8abd 1547 b83d a1d7 5cbe 20a3 a8bc
00000090: bbe1 a8bd e30d dcbd 75dc 2c3e 2e8b 4fbd
000000a0: 0f9f 493e e293 513d c621 6b3d 550f 04be
000000b0: 7470 bdbd 2ed3 acbe 0429 823d 3fb4 153c
000000c0: ac70 833e 3523 a7bd 3e40 e73e cf82 423e
000000d0: 07ba 593d 834e 8c3e 650d 433e d48b e83c
000000e0: 437d c03e f627 773e f428 fa3b 23f9 bdbd
000000f0: e560 e93e c833 603e 8617 ea3d 2ff1 c7bc
00000100: 30da ca3d 9706 083e 3bb8 093f 82ea 853d
00000110: 105d 673e 148b 663e 49ce 9ebd 7e16 133e
00000120: 0251 823e c511 823e d5ab c03e c233 3fbd
00000130: 5375 093e 8a81 313d 7ece 1f3e 0067 923e
00000140: 6aaa f23e c83a 773e 6d1e 873e 33c6 9e3d
00000150: 9719 4d3e a8a7 183e 9422 983e efd6 aa3e
00000160: 7b23 5e3e b4b5 1e3c 5d46 be3e 5bf9 fe3d
00000170: a4d7 303d 8cbd b83e 8ffb 643e 8a9f 8e3e
00000180: 257e 853e 0cda 483e 584d 643e 4d74 c33e
00000190: 98b7 4b3e 05e7 e63d 739c a2b9 cd0f eabd
000001a0: 244d 05be 4c9c 80bd 48b1 763d 685d 14be
000001b0: 1817 6b3d 0f8b f13d fb19 26be d200 573d
000001c0: d76d 893c 0989 e13d a618 2ebe 4f00 1a3e
000001d0: 3282 863b 9dd1 44be 5171 9a3d 4620 0a3e
000001e0: 6684 bf3c e2c5 2a3d 3921 a7bd ec47 133e
000001f0: cf04 b4bd dffe 3abe 1175 753d 3174 9f3c
00000200: b290 93bd b36b a13c 9be8 3abc 8f37 833c
00000210: 087e 2ebc b7f8 aabd f688 7bbb 561e c93d
00000220: 2aa4 883d 3860 c93d 4b6d 80be ed41 1f3e
00000230: 9023 03bd 4af9 b23d 23e1 50be d1a6 11bd
00000240: 4ec9 3fbd 91f1 a2bc 2060 423e bcb1 70bd
00000250: d588 123e 800c d6bd 1502 e23d de9c a1bb
00000260: b557 a83c db1e 273e d193 953e ac1f bebd
00000270: 1c4c c23d 070b d43d 4359 f63c e906 32bc
00000280: 151a 683d 96ae ab3d 5cfe e3bd fa86 0a3e
00000290: 1abb 523e ca7f a1bd 2f3b f93d c561 bd3d
000002a0: 7f8c cbbd d899 b43d 2183 d43d a795 d83d
000002b0: 7f0a 473d dc63 1e3e 938c 7fbd 81d8 eabd
000002c0: e2b0 a8bd b3af 4c3e 8ee9 8bbd 595d 973d
000002d0: 7e40 a8bc 013c af3d ddcd dcbc c2f3 10bd
000002e0: 2b69 663d 91cf e83d 38d9 f03d 265c d13b
000002f0: ec60 6cbc 2d63 e5bd a44c 16be e03e 0b3e
00000300: 6e59 703e c165 3bbd 49f5 b3bc 8a45 063e
00000310: 0c93 2c3e 2ce0 013e c48d 5f3e ca1a 1a3e

network.lstm.bias_hh_l1 f4 [200]
-0.17288706 0.110190414 -0.08318472 0.07558417 0.19157241 -0.08810413 -0.15936492 -0.16415
0.0043118894 0.059611283 -0.096937634 -0.15562324 -0.24558285 -0.01969324 0.076317675 -0.00019816055
-0.40781155 0.011645775 0.16791989 -0.33619148 0.04327026 -0.0953557 -0.22438109 -0.06163304
-0.46065655 -0.04346477 -0.16928472 -0.07060301 -0.10004079 0.045201883 0.07788245 -0.18804277
-0.19346982 0.11101858 -0.17404081 0.17308421 -0.067717366 -0.25715816 0.20144011 -0.1553388
0.1461319 0.11332852 -0.18558404 -0.093272746 -0.23986131 -0.08575229 0.03606513 -0.15214333
0.17213443 -0.18202206 0.3377489 0.11816638 -0.07013069 0.29520285 0.21387297 0.03805413
0.2752579 0.081522904 0.23569036 -0.12543643 0.3196022 0.22638792 0.12181989 -0.036783945
0.2634687 0.09937491 0.457722 0.12743074 0.29292816 0.3823772 -0.012043872 0.19280651
0.1589819 0.18434069 0.31113485 0.041235458 0.12892032 0.111271635 0.10587395 0.06679494
0.33924732 0.22044396 0.15296975 0.09499615 0.11644773 0.18040133 0.25912112 0.47082698
0.18573558 0.02786832 0.16416767 -0.048840627 0.30152482 0.42108947 -0.021444632 0.2922297
0.16277668 0.11068843 0.051994856 0.29468825 0.027662665 0.015799224 -0.06504906 0.033831652
-0.055717878 0.040802777 0.061734073 0.014815267 -0.022572378 0.09822621 0.092542574 -0.14993005
-0.042173896 0.08712039 -0.034863744 0.038775396 -0.09857174 -0.018891329 0.1998788 0.05200809
-0.084425956 0.0013638086 -0.15278473 0.03340307 0.023284342 -0.020366384 0.050052002 0.068767376
-0.01866555 0.07369248 -0.008741674 -0.030077055 -0.104420654 0.028989887 0.1169908 -0.08239434
-0.16774914 0.008895955 -0.18756121 -0.0008143667 0.111738324 0.2088506 0.0005951752 0.076484986
-0.08856385 0.08903153 0.0712506 0.14101818 0.14224133 -0.1639814 -0.018260038 0.01598463
-0.0077719125 -0.07476933 0.33830008 0.04031403 0.09716595 0.17807692 -0.13674742 0.18433678
0.10261676 -0.14323974 -0.09427538 0.028070489 0.16421287 0.06535646 0.06514642 0.057547502
0.14525235 0.15699023 0.060271714 0.17508821 0.06422609 -0.08498449 0.11128707 0.114914425
0.099720374 0.12375666 -0.070328586 -0.03655063 0.0495504 0.07949681 -0.06916188 0.16826457
-0.06644705 0.21330537 0.024713984 -0.09504316 -0.087636225 0.07944102 -0.100699194 0.16863936
0.29330105 0.15601292 -0.10348609 0.06752801 0.2741539 -0.1387336 0.12825167 0.11338816
00000000: 4e09 31be 83ab e13d c05c aabd e0cb 9a3d
00000010: 8f2b 443e f06f b4bd 8f30 23be f016 28be
00000020: c04a 8d3b f62a 743d 3d87 c6bd b35b 1fbe
00000030: 127a 7bbe b853 a1bc 714c 9c3d 51c9 4fb9
00000040: adcc d0be eccd 3e3c 31f3 2b3e 4a21 acbe
00000050: 283c 313d d949 c3bd 28c4 65be ed72 7cbd
00000060: 2ddb ebbe 1d08 32bd f958 2dbe 5098 90bd
00000070: 30e2 ccbd 9c25 393d d580 9f3d 498e 40be
00000080: f41c 46be b65d e33d c137 32be fd3c 313e
00000090: 67af 8abd 3caa 83be 5146 4e3e 2211 1fbe
000000a0: 9aa3 153e c818 e83d be09 3ebe c805 bfbd
000000b0: 349e 75be e69e afbd 08b9 133d 76cb 1bbe
000000c0: 0244 303e fe63 3abe 6ced ac3e 3701 f23d
000000d0: aea0 8fbd d424 973e 8401 5b3e a6de 1b3d
000000e0: 9aee 8c3e 7bf5 a63d d058 713e 6872 00be
000000f0: e6a2 a33e 3cd2 673e b57c f93d c3aa 16bd
00000100: 5fe5 863e 1385 cb3d 8a5a ea3e 347d 023e
00000110: aefa 953e f2c6 c33e a953 45bc 126f 453e
00000120: 27cc 223e cec3 3c3e 114d 9f3e 83e6 283d
00000130: b003 043e 62e2 e33d 71d4 d83d c9cb 883d
00000140: d3b1 ad3e 10bc 613e 1aa4 1c3e 578d c23d
00000150: 267c ee3d 20bb 383e 86ab 843e 3c10 f13e
00000160: 7831 3e3e 1a4c e43c 921b 283e 1c0d 48bd
00000170: 7661 9a3e 0a99 d73e a7ac afbc 229f 953e
00000180: eeae 263e 9eb0 e23d 8ff8 543d 61e1 963e
00000190: d09c e23c 606d 813c 7138 85bd 0f93 0a3d
000001a0: 6e38 64bd d020 273d dedc 7c3d bcbb 723c
000001b0: b5e9 b8bc d32a c93d f686 bd3d 4387 19be
000001c0: 89be 2cbd 2d6c b23d 49cd 0ebd f3d2 1e3d
000001d0: fbdf c9bd fdc1 9abc 07ad 4c3e 6f06 553d
000001e0: 84e7 acbd d3c1 b23a 9a73 1cbe a8d1 083d
000001f0: cebe be3c 67d7 a6bc 5403 4d3d e9d5 8c3d
00000200: 7fe8 98bc 15ec 963d 3d39 0fbc 2864 f6bc
00000210: 7fda d5bd 337c ed3c df98 ef3d 5dbe a8bd
00000220: 6ec6 2bbe 57c0 113c 0c10 40be 397b 55ba
00000230: 10d7 e43d efdc 553e 8805 1c3a 29a4 9c3d
00000240: f760 b5bd 2a56 b63d d6eb 913d 1267 103e
00000250: b6a7 113e bdea 27be 1396 95bc 33f2 823c
00000260: 87ab febb aa20 99bd ab35 ad3e 5320 253d
00000270: f1fe c63d cc59 363e 8407 0cbe c8c2 3c3e
00000280: bc28 d23d 70ad 12be 7313 c1bd 15f4 e53c
00000290: 6b27 283e 9cd9 853d 7c6b 853d eeb6 6b3d
000002a0: 08bd 143e 0cc2 203e 79df 763d 534a 333e
000002b0: f888 833d 590c aebd 7aea e33d 4158 eb3d
000002c0: 323a cc3d 2274 fd3d 6f08 90bd 1db6 15bd
000002d0: 5cf5 4a3d 39cf a23d bea4 8dbd 8c4d 2c3e
000002e0: 6415 88bd b96c 5a3e fb74 ca3c fda5 c2bd
000002f0: 9f7a b3bd f9b1 a23d 613b cebd ccaf 2c3e
00000300: 8e2b 963e dac1 1f3e 84f0 d3bd 204c 8a3d
00000310: e65d 8c3e 2e10 0ebe 6854 033e 0d38 e83d

network.lstm.weight_ih_l2 f4 [200, 50]
-0.031171408 0.21735997 0.15586084 0.02684809 -0.12271232 0.063544326 0.065107614 -0.08755729
0.48123822 0.08725487 0.06530525 -0.06817032 0.48554695 -0.226154 -0.18743238 -0.059017446
0.50705564 -0.11711461 0.05041832 0.33643803 -0.34931535 0.012002623 0.18473123 -0.11145403
0.16410315 -0.17804548 0.23718028 0.8182317 -0.0050715897 0.28781658 -0.00690519 0.22435763
-0.14091764 -0.26276696 0.12912841 -0.021360826 0.054944556 0.52073044 0.07249409 0.5892405
0.35993493 -0.4768588 0.0068342686 0.07637128 0.23248118 0.21269733 -0.013752546 -0.08572125
-0.06190466 -0.34006426 -0.31002015 0.35252386 -0.0036709514 0.23628825 0.26236913 0.10245291
-0.04712379 0.14194874 0.094087414 0.56488985 -0.14970556 0.12756771 0.20006864 0.09649221
-0.031360146 -0.07384859 0.14028321 -0.18844648 -0.313326 -0.3420999 -0.15461226 0.06116704
0.23386416 -0.26294497 0.21335472 -0.60576653 0.183231 0.13980888 0.5049825 -0.44077623
0.25170434 0.21567146 -0.52544725 0.16628142 0.008202808 -0.23217314 -0.15793544 -0.28761396
0.11824126 0.4441775 0.20846583 0.02972916 0.23164475 0.33745375 -0.3395406 -0.18299066
0.22206761 0.37207758 -0.18147576 -0.2019145 -0.074112006 0.0969866 -0.0009796189 -0.22539213
-0.013042494 0.017454268 -0.059781864 0.09602578 -0.4554371 -0.39073223 -0.057447854 -0.107047334
0.087023795 0.13009611 0.08117795 0.09326127 0.22835588 -0.33671227 0.31740874 -0.09884471
-0.09819746 0.083478086 0.19670668 -0.00089519465 0.21083392 0.41221428 -0.13169931 0.08513836
-0.07055187 -0.35254312 0.05668262 0.034176495 0.08404449 0.3949396 -0.19248495 -0.20169385
0.042412348 0.22070982 0.056697123 0.5126365 -0.38528118 0.20810828 0.17453258 -0.07642902
0.16506545 0.3723527 -0.031456906 0.23200777 -0.21115434 -0.197712 -0.018049924 0.062717766
0.05684088 0.034162015 0.018986428 0.014846332 -0.043097395 0.01599863 0.011829388 -0.040411297
0.009696168 0.08331318 0.055549245 -0.068848155 -0.018848913 0.050601747 0.041858267 -0.08920082
0.09165533 0.0028013648 0.057150874 0.06665525 -0.09267286 -0.007123447 -0.0652287 0.052974172
-0.052291483 0.057740346 -0.077891685 -0.016396996 -0.0036628332 -0.036311746 0.11016782 0.039194867
0.007066229 0.1455246 -0.07790027 -0.030283196 -0.12948999 -0.012949867 -0.0098074265 0.0781773
-0.05984048 0.06881567 0.010403343 0.047221333 0.070090085 0.01275831 -0.07667581 0.076276086
-0.07900726 0.34101287 -0.2862285 0.09473481 0.22198188 0.31358767 -0.1658775 0.077238925
0.41589394 -0.33828068 -0.2675304 -0.11791529 -0.052787263 0.076668814 0.4319422 -0.3304441
0.07982482 -0.14919439 0.13366841 0.54838574 -0.09357066 -0.40639743 -0.26068065 -0.24078324
-0.6633543 0.083550304 0.04176096 0.027165297 -0.15811321 -0.022048278 0.09303089 -0.047202032
0.023223124 0.17622647 -0.026701255 -0.028234413 -0.29338095 -0.52605546 0.11762604 0.19196922
0.21969979 -0.032690033 -0.03582933 0.018300336 0.048425652 0.13869435 0.19312415 0.44345564
-0.09058375 -0.11895654 0.05190742 0.12280097 0.20800084 -0.11582568 -0.0063936776 0.086010456
00000000: 2e5b ffbc 9d93 5e3e fc99 1f3e 87f0 db3c
00000010: 9950 fbbd 8723 823d 2457 853d 3d51 b3bd
00000020: db64 f63e aeb2 b23d c2be 853d e19c 8bbd
00000030: 9c99 f83e ea94 67be 46ee 3fbe 47bc 71bd
00000040: 66ce 013f c9d9 efbd 7183 4e3d 9b41 ac3e
00000050: 76d9 b2be a6a6 443c 2f2a 3d3e 0342 e4bd
00000060: a80a 283e 8e51 36be 63df 723e a277 513f
00000070: 942f a6bb b25c 933e ef44 e2bb 02be 653e
00000080: b74c 10be 6489 86be 3d3a 043e e6fc aebc
00000090: 8b0d 613d 974e 053f c877 943d 77d8 163f
000000a0: 6449 b83e d626 f4be 00f2 df3b 8c68 9c3d
000000b0: 8c0f 6e3e 54cd 593e 5c52 61bc 9f8e afbd
000000c0: be8f 7dbd e71c aebe f6ba 9ebe 027e b43e
000000d0: 5894 70bb 8cf5 713e 3f55 863e d5d2 d13d
000000e0: e004 41bd 035b 113e e7b0 c03d 9f9c 103f
000000f0: 6a4c 19be 1ca1 023e cbde 4c3e b59d c53d
00000100: 7f73 00bd ee3d 97bd 67a6 0f3e 1df8 40be
00000110: 446c a0be b827 afbe ad52 1ebe 4a8a 7a3d
00000120: 167a 6f3e b9a0 86be a979 5a3e 8413 1bbf
00000130: e8a0 3b3e 0f2a 0f3e 8846 013f 6cad e1be
00000140: 64df 803e fbd8 5c3e b683 06bf ad45 2a3e
00000150: 1265 063c ccbe 6dbe d4b9 21be 2342 93be
00000160: 7928 f23d 3c6b e33e 1178 553e 918a f33c
00000170: 4834 6d3e bdc6 ac3e 44d8 adbe e761 3bbe
00000180: b165 633e f480 be3e c8d4 39be adc2 4ebe
00000190: 09c8 97bd e9a0 c63d 8e66 80ba 32cd 66be
000001a0: 2fb0 55bc 41fc 8e3c d4dd 74bd 2aa9 c43d
000001b0: 0d2f e9be 0e0e c8be 714e 6bbd a23b dbbd
000001c0: 8839 b23d ea37 053e a040 a63d c4ff be3d
000001d0: 20d6 693e 8d65 acbe 6683 a23e 186f cabd
000001e0: c01b c9bd 8ff6 aa3d 7a6d 493e 7fab 6aba
000001f0: d9e4 573e c00d d33e 2fdc 06be 055d ae3d
00000200: 807d 90bd 8880 b4be 092c 683d a7fc 0b3d
00000210: 841f ac3d 8635 ca3e c61a 45be d588 4ebe
00000220: 92b8 2d3d c101 623e 3e3b 683d 253c 033f
00000230: 9343 c5be 561a 553e abb8 323e d186 9cbd
00000240: eb06 293e 03a5 be3e f5d8 00bd 7293 6d3e
00000250: d838 58be 0475 4abe 6fdd 93bc 2c72 803d
00000260: fcd1 683d 78ed 0b3d 6d89 9b3c 083e 733c
00000270: e586 30bd 8f0f 833c 0dd0 413c 5186 25bd
00000280: addc 1e3c 1aa0 aa3d 9b87 633d 4300 8dbd
00000290: 0969 9abc c743 4f3d 9373 2b3d ebae b6bd
000002a0: cab5 bb3d 1a97 373b 0917 6a3d 8c82 883d
000002b0: 45cb bdbd ce6b e9bb a096 85bd 72fb 583d
000002c0: 982f 56bd 2481 6c3d ad85 9fbd fe52 86bc
000002d0: 250c 70bb a0bb 14bd aa9f e13d cc8a 203d
000002e0: d38b e73b 6704 153e 2d8a 9fbd 7714 f8bc
000002f0: 0699 04be ae2b 54bc 54af 20bc 6c1b a03d
00000300: 4b1b 75bd 3bef 8c3d c872 2a3c 286b 413d
00000310: 648b 8f3d 3b08 513c 3508 9dbd a336 9c3d
00000320: 8fce a1bd 3d99 ae3e 8b8c 92be 5304 c23d
00000330: 384f 633e 908e a03e cbdb 29be 712f 9e3d
00000340: 0df0 d43e 2033 adbe bff9 88be 927d f1bd
00000350: 7537 58bd 8a04 9d3d 8727 dd3e f82f a9be
00000360: 327b a33d 6ac6 18be 5fe0 083e 0263 0c3f
00000370: f9a1 bfbd 5313 d0be ef77 85be e28f 76be
00000380: 96d1 29bf 6c1c ab3d 8a0d 2b3d c289 de3c
00000390: 6ee8 21be 979e b4bc fb86 be3d eb56 41bd
000003a0: 6c3e be3c b674 343e 97bc dabc db4b e7bc
000003b0: 0736 96be 92ab 06bf ece5 f03d 9493 443e
000003c0: fbf8 603e fce5 05bd c7c1 12bd 96ea 953c
000003d0: fa59 463d e405 0e3e 56c2 453e 9e0c e33e
000003e0: f983 b9bd 7d9f f3bd e09c 543d 137f fb3d
000003f0: 2cfe 543e 0436 edbd 0e82 d1bb 4026 b03d
